…
iod=-1, save_txt=False, scale=0.5, seed=0, shear=0.0, show=False, show_boxes=True, show_conf=True, show_labels=True, simplify=True, single_cls=False, source=None, split=val, stream_buffer=False, task=detect, time=None, tracker=botsort.yaml, translate=0.1, val=True, verbose=True, vid_stride=1, visualize=False, warmup_bias_lr=0.1, warmup_epochs=3.0, warmup_momentum=0.8, weight_decay=0.0005, workers=8, workspace=None
Overriding model.yaml nc=80 with nc=3

                   from  n    params  module                                       arguments
  0                  -1  1      1856  ultralytics.nn.modules.conv.Conv             [3, 64, 3, 2]
  1                  -1  1     73984  ultralytics.nn.modules.conv.Conv             [64, 128, 3, 2]
  2                  -1  3    279808  ultralytics.nn.modules.block.C2f             [128, 128, 3, True]
  3                  -1  1    295424  ultralytics.nn.modules.conv.Conv             [128, 256, 3, 2]
  4                  -1  6   2101248  ultralytics.nn.modules.block.C2f             [256, 256, 6, True]
  5                  -1  1   1180672  ultralytics.nn.modules.conv.Conv             [256, 512, 3, 2]
  6                  -1  6   8396800  ultralytics.nn.modules.block.C2f             [512, 512, 6, True]
  7                  -1  1   2360320  ultralytics.nn.modules.conv.Conv             [512, 512, 3, 2]
  8                  -1  3   4461568  ultralytics.nn.modules.block.C2f             [512, 512, 3, True]
  9                  -1  1    656896  ultralytics.nn.modules.block.SPPF            [512, 512, 5]
 10                  -1  1         0  torch.nn.modules.upsampling.Upsample         [None, 2, 'nearest']
 11             [-1, 6]  1         0  ultralytics.nn.modules.conv.Concat           [1]
 12                  -1  3   4723712  ultralytics.nn.modules.block.C2f             [1024, 512, 3]
 13                  -1  1         0  torch.nn.modules.upsampling.Upsample         [None, 2, 'nearest']
 14             [-1, 4]  1         0  ultralytics.nn.modules.conv.Concat           [1]
 15                  -1  3   1247744  ultralytics.nn.modules.block.C2f             [768, 256, 3]
 16                  -1  1    590336  ultralytics.nn.modules.conv.Conv             [256, 256, 3, 2]
 17            [-1, 12]  1         0  ultralytics.nn.modules.conv.Concat           [1]
 18                  -1  3   4592640  ultralytics.nn.modules.block.C2f             [768, 512, 3]
 19                  -1  1   2360320  ultralytics.nn.modules.conv.Conv             [512, 512, 3, 2]
 20             [-1, 9]  1         0  ultralytics.nn.modules.conv.Concat           [1]
 21                  -1  3   4723712  ultralytics.nn.modules.block.C2f             [1024, 512, 3]
 22        [15, 18, 21]  1   5585113  ultralytics.nn.modules.head.Detect           [3, [256, 512, 512]]
Model summary: 209 layers, 43,632,153 parameters, 43,632,137 gradients, 165.4 GFLOPs

Transferred 589/595 items from pretrained weights
Freezing layer 'model.22.dfl.conv.weight'
AMP: running Automatic Mixed Precision (AMP) checks...
AMP: checks passed âœ…
train: Fast image access âœ… (ping: 0.0Â±0.0 ms, read: 737.4Â±544.0 MB/s, size: 427.7 KB)
train: Scanning /projects/academic/shamsadp/JAAD_Yolo_Training_Dataset/labels/train... 52658 images, 0 backgrounds, 0 corrupt:
…
